CNN/CNN_Data/sine_wave_model_cnn.pth (torch, 37879 bytes, 6 tensors)

conv1.weight f8 [32, 3, 1]
00000000: 64ef 3bd2 2664 0640 ca82 b9c9 27d5 f13f
00000010: 24cf bdb7 10d3 1e40 ef4e be37 aedc dcbf
00000020: 86c5 950b 1331 16c0 e489 c13d 82c1 11c0
00000030: 0921 276e b2ec f43f 274c a18a 87f8 e9bf
00000040: f609 af34 151d e0bf a19c 4653 47c8 c43f
00000050: 200d e144 299a a3bf 4a64 538c c413 c4bf
00000060: a5c2 bee2 9acf d93f c027 49a6 e3aa 0640
00000070: 36a8 8843 dbd7 0640 a8ea 1c9a 42fa 1140
00000080: 7b92 a04b ae8c fbbf 3523 5bb2 9a80 10c0
00000090: 7f76 45b6 ed0b 12c0 d120 a6fb a9d8 0cc0
000000a0: 9d2f 37d6 2312 f5bf c313 a4c5 45a5 f3bf
000000b0: 22f2 f5ae beba e1bf 20fe 68ed 70f6 14c0
000000c0: c39c 1beb d862 d83f 5053 c540 8cd9 c1bf
000000d0: 4d0f 7a8c ba28 d0bf 944e 3ade 2560 e93f
000000e0: c9f2 2edf 89a6 d13f 93c0 af7a e3fe f0bf
000000f0: 3476 c5d3 c4a7 13c0 d09d 4fdb 98c4 10c0
00000100: 6df3 02c2 06ca e73f dbbb c232 6a12 ee3f
00000110: 61b4 2f33 d6d2 c9bf 4823 469f d934 e7bf
00000120: 7e1c 7a27 6d96 0740 20f9 2cb9 805a 0440
00000130: fdf2 3cc2 3724 0d40 73e7 01dc 5140 d5bf
00000140: 6ef3 a615 4909 f4bf d97a 6b18 b345 f0bf
00000150: 900a 7a25 bc67 cb3f 7266 addd 206d d73f
00000160: c09e 2412 7f3f e2bf 0471 4b3e 0ba4 ebbf
00000170: b524 dfcb 7630 d73f e0e8 5ec5 f948 d73f
00000180: b913 6aa5 632e fd3f 80a4 76ff 0d2b 1940
00000190: d9c2 8e94 5d7d e1bf 2672 5c76 ddf9 e53f
000001a0: 894f 3140 0e52 fa3f 8f4a 5cb3 9300 fe3f
000001b0: 73d2 57d5 9d06 e9bf 3d9c d325 584a f23f
000001c0: 94db 2047 e38b d8bf aa19 b29d 9271 f13f
000001d0: 38ab 4d93 1284 c1bf 9bcf a062 c828 eebf
000001e0: 237a 657e 4e33 eb3f 3ba1 e0fd 40c5 d23f
000001f0: 6aae e62c 6ff5 f1bf 7f8c 5765 4c8c 0540
00000200: 9312 8830 456e f73f 138c d53c aca5 c3bf
00000210: 5647 dfad 9922 d7bf ef52 7d04 6165 00c0
00000220: b5ac c7af f0ff 04c0 f8a9 200b 1fdc 1740
00000230: 2ece e684 333e d63f fb15 1368 a529 17c0
00000240: 0d76 ba6a 7455 0840 9018 5591 9a69 fcbf
00000250: 619c 3a78 46c4 10c0 c017 f05c 6926 0740
00000260: 9567 ceb8 6f75 fdbf eadd 8e5e 4eed 0fc0
00000270: c6cc e8ac 17bc afbf 91a1 dd64 f832 dd3f
00000280: a069 b376 0fa5 d9bf e8e8 8101 a51c e13f
00000290: 76b4 ba8c 72f3 a43f 5683 8632 662d e2bf
000002a0: 9c93 e468 f2d9 0140 f5ef 17de 0b4f a6bf
000002b0: 7984 c58d b022 02c0 1783 7694 3a88 d13f
000002c0: f8aa 5de2 9003 00c0 81c0 04f7 58f1 fa3f
000002d0: cab1 1b26 3bdd dabf 9924 ac53 4c64 ecbf
000002e0: deca 7af5 8a53 f43f 41b4 2f47 6bbc d23f
000002f0: eba8 494f d4d3 ce3f bc49 9a1f 62fb e1bf
2.798902170614314 1.1145398979062286 7.706118460617095 -0.45096927112284296 -5.547924214378673 -4.438973393380795 1.3077873518796557 -0.8115880687349816
-0.5035501507739457 0.16236201826288713 -0.03828553167161375 -0.1568532643493959 0.40329620497781554 2.833442019565126 2.8553986812667302 4.494394691481524
-1.72184590856446 -4.125590121090501 -4.511648986806562 -3.605792966849642 -1.31692870786626 -1.2278497429226582 -0.554046003074806 -5.240665158780331
0.3810331626868441 -0.13945153391491738 -0.2524858829349242 0.7929868069063155 0.27578970713856826 -1.0622286598627724 -4.91383677380286 -4.191989351972964
0.7434114255225787 0.9397479049129019 -0.2017467260297137 -0.7252014265842286 2.9484503826275263 2.544190832791301 3.642684476361295 -0.3320507668028007
-1.2522669645106492 -1.017016501798642 0.21410323934476994 0.3660356678788964 -0.5702510218006509 -0.8637748924916484 0.36233301076260754 0.36382908129202285
1.8238254987238476 6.2920455852664645 -0.5465534116284189 0.6867511092892229 1.6450331218265737 1.8751408582944895 -0.7820576826912443 1.14315047050492
-0.38353807397964457 1.090227714537472 -0.13684303467319991 -0.942478363640919 0.8500130146674717 0.29328942101212235 -1.122420478243749 2.69350508855274
1.4644214530718827 -0.153493432716545 -0.36148683528619097 -2.0495014525171125 -2.6249707920847762 5.964962171429299 0.34754646280927914 -5.790670038380536
3.041725953879683 -1.7757821728751289 -4.191675070359538 2.8937556515474796 -1.8411709994311185 -3.990872133955908 -0.06198190675459041 0.45623597955866396
-0.40069948760869956 0.5347466496889668 0.04091985671889457 -0.5680418955636053 2.2314193911319773 -0.0435718258486019 -2.266938312139754 0.27393974779447333
-2.001741188510433 1.6839227341806977 -0.4197528717184268 -0.8872434267260757 1.2703961934136525 0.29275018646041323 0.24083951827498792 -0.5619364373435967

conv1.bias f8 [32]
00000000: 0882 d543 72ec 54c0 0b7a 9c3a 76a5 3040
00000010: 7438 b1ff 3a85 fabf bb73 8d81 507d 00c0
00000020: a6a5 b90d 7b8e 50c0 7925 0d1b 2d96 1540
00000030: 20e6 2af0 1e64 efbf 81d7 16b5 cabb 1f40
00000040: 2e68 21de 83b4 e2bf 0ad3 6dfe d3ce f7bf
00000050: 7dfe 9657 1a07 27c0 73fa 62d6 0575 f4bf
00000060: c26c 6a3c cd64 3ac0 d5ab b1bd 4835 3440
00000070: ba03 4631 2617 f2bf 13de 815c 1860 18c0
00000080: d988 8f8b ff39 3ec0 6506 1bf8 8bd0 49c0
00000090: 5eac 1c5a c975 02c0 d0fb f1bc 7941 f9bf
000000a0: 5ad0 06dc 050f 03c0 80fe 291a 3bde 4ec0
000000b0: 1609 2204 6692 3a40 5fd9 9e0c c4a4 e03f
000000c0: 0eb0 e67a 7677 2540 d5b1 409e 2b1c 1cc0
000000d0: 7bbf 0302 edbe 12c0 f287 7e1d 0e41 04c0
000000e0: f740 dca1 80cb 11c0 2c3c 3899 0929 f5bf
000000f0: d97d b654 bcd9 f9bf 8f7c 1418 e095 01c0
-83.69447418070206 16.64633528061135 -1.6575269687632757 -2.061188709382319 -66.22626059655758 5.396656439473525 -0.9809717837117127 7.933390454787401
-0.5845355356680153 -1.4879951418526525 -11.513872849637886 -1.27857002014903 -26.393756652815462 20.208141189457667 -1.130651657557094 -6.093842931200487
-30.226555559675806 -51.62927151984767 -2.307512954711952 -1.5784852390931867 -2.382335394819205 -61.73617865610595 26.57186914282746 0.520113014840529
10.733325806293603 -7.027510140131615 -4.686450988272436 -2.5317652038802345 -4.448732880657409 -1.322518919481591 -1.6156581219764716 -2.1981813317539216

fc1.weight f8 [3, 960]
00000000: 01f9 d4aa 56ef b53f 5dde 30a4 c0c2 ad3f
00000010: 3155 2279 adc6 dcbf b360 3ade 0dd8 d3bf
00000020: a429 1a47 9d8b e0bf b3d8 5635 ac49 f1bf
00000030: bba0 7d9b 5c23 e6bf 6ee4 0408 e3ed c63f
00000040: 8d93 b85c 983f ec3f 334a b1b1 101f ec3f
00000050: 752b 2921 491b f13f bbb5 e405 f2a0 f33f
00000060: da15 e2de 9b31 dc3f 6268 e429 17ff e5bf
00000070: 74b5 c38a 08e0 fabf 8b14 b10b 001b f5bf
00000080: 8d7c 178f 9fc9 d7bf bf6f 77b1 c02c cb3f
00000090: dec5 7872 7ec7 ea3f 73b0 55d8 2a3e e03f
000000a0: e5fe 8d68 d65b 963f 595b f26a d2f4 ddbf
000000b0: c172 2a7e e0cc d3bf f605 081e 187e ca3f
000000c0: bb54 3402 10d5 e73f 57a2 8daf a635 e83f
000000d0: b9b4 23ee de8c cc3f d725 2360 3fb9 e7bf
000000e0: 8c10 9d67 6383 f1bf 2716 c932 e17c d8bf
000000f0: ddf3 8a30 1d66 0d40 d5d9 bec6 413e e43f
00000100: c935 2d22 79b3 0fc0 570d 3e85 ff51 ebbf
00000110: c521 63ca 56c0 2240 249b eed9 a1a3 0240
00000120: 50eb 73e8 3488 c9bf 64fc fc55 b84c e3bf
00000130: c015 ad11 f573 01c0 a71d 19df 6a7a f4bf
00000140: 69c5 d72b 9475 f8bf 318f 8866 374d 0040
00000150: aba2 6f5d 9c2f e3bf 2f58 43cd c0ea fabf
00000160: b71f b216 8e71 ffbf 6f46 e197 08c9 f4bf
00000170: 1b71 b187 553c f5bf fc78 b659 63fb cebf
00000180: e1de ee1d 63b1 d53f 217d c51b d5d1 f33f
00000190: 47e6 454c eced cc3f 4b54 eeb4 944b dabf
000001a0: 9c22 6075 183d e4bf ed44 e111 5a05 e3bf
000001b0: 8884 995e bfcb d6bf febf 1449 6270 c6bf
000001c0: 31fb f525 6705 de3f 5406 0f8a 063a f53f
000001d0: 9bf6 f8d5 93ff ee3f 9e99 0e35 7248 cfbf
000001e0: 8a36 17c4 f18b b83f e878 b1a7 52da d0bf
000001f0: 78b0 f227 dde7 b6bf a328 3f6f a64e c2bf
00000200: b26a bf5c fa93 a33f d4ce 7663 1b9f d33f
00000210: 1268 3ca5 6764 d63f 004c a7da 2092 db3f
00000220: a9e4 ce46 c121 d53f d3c8 9924 86c9 d03f
00000230: d5fc 73ac e64d cd3f f996 a507 4674 c73f
00000240: f1d6 e1fe 49ca c13f 8d4f beb3 12bc d13f
00000250: 4457 5f9c 81f8 bc3f 0537 b3fa f1cd c23f
00000260: 0b0f 2d40 a46c d13f 5da2 2b21 4e1f c23f
00000270: 1dac 9b04 a2ab c33f 62a3 061e 2841 d43f
00000280: cbb4 bdc1 b93c cebf 7fc3 6e3d 0065 d73f
00000290: 7204 65fd 90c9 c93f abb1 abfc b9bb c7bf
000002a0: f59e 5b2a 73d9 d6bf 936c 6991 f6a3 d5bf
000002b0: 8922 0305 9b82 bebf 5e84 4135 7ee7 b2bf
000002c0: dbfb 2af8 a305 acbf 92b6 80e4 c161 c83f
000002d0: 61c7 83f8 7ae1 d8bf 9aef 536a fdb8 d8bf
000002e0: dfb5 7dea 67bd d5bf db49 0bc7 16d7 d4bf
000002f0: 41d0 5e7f 45b1 d0bf 7b8a e239 2bac d7bf
00000300: e74b 20f1 150d d9bf e8b8 8731 914d d3bf
00000310: b46d 391c f1e1 d6bf 123b 44f3 6d15 d0bf
00000320: fc00 bd23 d67e d0bf b2de 0061 d019 ccbf
00000330: a7ba 93bd 9b97 cdbf 58c4 672d a9da cbbf
00000340: 8955 ac57 a323 c5bf da50 e38e 4749 cfbf
00000350: 17bf d487 fd30 d0bf fbf2 d894 56a9 d6bf
00000360: b420 820c b5cc d6bf 543e dbca e74a d1bf
00000370: 0e00 5461 2a4b c3bf 386f e8d8 193e 973f
00000380: aefe e1ad e4d5 a33f 6e8c 7536 f3d5 bb3f
00000390: d45e a947 6fe4 a23f 6df7 f28a a0c7 a13f
000003a0: c981 013b 2d8c ae3f 409c fec6 84dc ad3f
000003b0: d42d 54e3 0ed6 963f b179 c085 6516 ccbf
000003c0: b098 f4c9 351b 1040 f14b 991c eb5e 0540
000003d0: 4a51 1b56 d4c1 0140 0986 536f ee70 e33f
000003e0: 019f 1ca4 05f5 00c0 4e10 481f 83fe 07c0
000003f0: 75c2 eabd 6494 03c0 c95b 18a1 230f f3bf
00000400: a09b bb70 2dbd c13f ac61 30ad 14a8 c03f
00000410: 522f bbfe 2c5b d43f 5e0c 20f6 e702 d63f
00000420: 70a2 b988 ee65 ce3f 37ff ff85 c4d5 f7bf
00000430: c5c9 a4ed c272 00c0 5b88 a455 df1f 00c0
00000440: 69fc 3228 5a9d e2bf 6352 8bfe dd30 b83f
00000450: 6772 e7cd fa6c ef3f aa32 ece1 b8d8 f13f
00000460: b9f5 982f b5ac d1bf 8fb5 52b0 1306 e1bf
00000470: 901a a48d 5437 c4bf c326 5df4 e8bd f33f
00000480: 9600 3465 1355 fc3f 38dc dff9 ff2f e93f
00000490: f35c a02f 6252 cfbf 4c20 5293 f63d 953f
000004a0: 3b36 0466 e3ca f03f 8673 b952 75fc edbf
000004b0: 9672 542c ba7c f13f 2efa 5e6e ef3a fbbf
000004c0: 8aa5 8665 f131 913f 5cd0 7f3e 4e10 1240
000004d0: d453 f9d9 470c 8bbf c18f 4b13 d8bf b1bf
000004e0: 4556 e8a2 d07a 863f 9b0d 8595 8b41 a23f
000004f0: 0e12 b2cb c4a9 aebf a058 747f 31b9 b7bf
00000500: 2e0f e20c 17fe 1740 9d0a 4c57 fd77 a33f
00000510: 2642 dec3 178d a63f fac5 4a41 49b3 aabf
00000520: 5bfd 9056 3cb2 b0bf a5a2 cb86 9ce4 b4bf
00000530: 1b5e 9010 fec4 b5bf 473a 7857 0dca a13f
00000540: 0d54 e77d d196 9c3f d0bb 109e 54f5 813f
00000550: 1664 097f 25a6 c73f 043d 4c80 84f4 f6bf
00000560: 3cc9 05c5 f6d9 f0bf f0a5 6af2 6b73 ebbf
00000570: d1ef fd72 2132 e53f 6b36 ce0e bd2f d93f
00000580: 4441 f449 99fb d53f 1f31 298f 32ac cdbf
00000590: 8728 6163 dd16 eebf 547b 6f2a b1e2 e1bf
000005a0: 568c 2b0d a424 1240 9ee1 a65e 0eee b23f
000005b0: 3a29 5a42 5060 9bbf 8e97 a0a9 2a25 a9bf
000005c0: 08fd cd5d 53c8 893f 383f c1ff f981 aa3f
000005d0: d68f 6b1d 479b 9bbf 2048 1499 c8ef a73f
000005e0: 0ac5 4b7c bb8c a9bf d670 9d74 4ea7 b33f
000005f0: eb98 f9f5 6c7b 0c40 c09d d552 6fd0 8abf
00000600: 3a6b 837e ab4e a7bf 3e16 39ee 23e4 a33f
00000610: 6e77 f2d6 269e a2bf ac5b a353 59d7 913f
00000620: e0f8 43e2 6181 613f 9074 368e 56fe 773f
00000630: 2894 bc26 17bc ac3f a81c 4563 ac15 b43f
00000640: 93df a6a2 57b4 e0bf d5b2 a76e b7e0 a3bf
00000650: 787e eac2 f3b8 be3f 21a6 63c0 a0d5 dabf
00000660: b8a3 887a 9bb9 bfbf 125e b59c c8c7 dd3f
00000670: 43a8 7744 b5bc debf 0c51 6362 429c b9bf
00000680: 422e 4432 b16c cb3f 858e 9fc8 355d af3f
00000690: 398e 2a2c 66e2 0540 4369 8838 5a09 ecbf
000006a0: a2e1 c37e 38bd e83f 284e e8bc 8932 e03f
000006b0: ea2e 3124 04a2 f83f 9ab5 6cea 6f98 fd3f
000006c0: 6d42 9e10 4345 e4bf 2cd1 0cf3 2888 00c0
000006d0: b055 b8cc 8ec4 f4bf 642c f1a7 0c35 fabf
000006e0: 7211 c87d 6ef0 0440 aada 5ee5 fb22 d93f
000006f0: b4c3 6bb2 3ba0 d23f 1857 543f 5b12 da3f
00000700: 307a c3d8 1803 e93f d1d0 074e 9b29 e9bf
00000710: 1757 5dd7 abde f1bf 00b9 883c 1f9e edbf
00000720: cf67 f817 22ac e2bf 82fb afee feef d03f
00000730: e1da 59f3 ee4d b53f 6467 05a1 32dd fd3f
00000740: 8af4 8eb9 0113 e63f 3780 982a cf5c ecbf
00000750: fe7d 3cc8 a30a e2bf abb5 b211 a2e1 f03f
00000760: 9bfb 4521 c3ca e23f c90f b5a0 8697 a73f
00000770: 951b fb83 571e f6bf 8021 25fa d427 e1bf
00000780: ac1a 2a68 5ced 11c0 0d23 d92f 64c9 e83f
00000790: 24a4 6821 3d6a cf3f 8072 e84f 4563 e63f
000007a0: f66e 1440 2527 e23f 3311 8d90 232f e33f
000007b0: fb76 c587 09c7 e43f bf47 1399 a9ad e53f
000007c0: 0372 7c8e a5d7 e23f 3cdb 48e7 fa15 e43f
000007d0: fa8e 4053 0695 e2bf 463a 6a2a 7f00 e23f
000007e0: b961 4a3e e2b7 e23f 708d 77f5 b28b e53f
000007f0: d5a1 c8d7 4598 e63f 1ec4 1ed1 4f80 e73f
0.08568326636029512 0.058126468699296586 -0.449626320166618 -0.31006190015751683 -0.5170427693095019 -1.0804864963115903 -0.6918166195801158 0.17913473025854237
0.8827630816418705 0.878792140060176 1.0691615386337763 1.2267933111391887 0.44052788511211605 -0.6873889749724749 -1.6796956463325303 -1.31909184043005
-0.3716811082248988 0.21230324426039535 0.8368522868897192 0.5075887894904682 0.021834707385550173 -0.46806774562849324 -0.309379695137789 0.2069730898511321
0.7447586100630795 0.7565492085241868 0.2230490362921154 -0.7413632276231351 -1.0945772216228162 -0.3826220508529751 3.674860362282273 0.6325997239826459
-3.9626333875700976 -0.8537595369711352 9.375662159539283 2.3298985506002214 -0.19946919775233107 -0.6031152419526618 -2.1816197758623446 -1.279887076832759
-1.5287057602511942 2.0377033243584255 -0.5995618653224332 -1.6823127763832522 -1.96522339692636 -1.299080460816551 -1.3272300053132031 -0.24204675560481081
0.338951853972942 1.2387286267110726 0.2260108349253633 -0.4108630911735573 -0.6324579517832549 -0.5944033002107553 -0.35618576277017455 -0.17530468529139392
0.4690797682487072 1.326666392604598 0.9686984233046191 -0.24439838019061438 0.09588538205499667 -0.2633253705624967 -0.08947546220105262 -0.1430252116391034
0.038238357373946555 0.30658611977854133 0.34987822662662993 0.430793965843975 0.3301852408872699 0.26230004858292694 0.22893985195694336 0.18323588727360354
0.13898587174815405 0.27710406830851114 0.11316690509496846 0.1469099496957186 0.27225595729054025 0.14158035869265265 0.15367531991009367 0.316476849863241
-0.23622819862376895 0.3655396079948829 0.20146381733687552 -0.1854164584868959 -0.3570220864917098 -0.338132516864513 -0.11918038246506958 -0.07384480285829073
-0.05473053364175203 0.1904833188759097 -0.38876222867030746 -0.3862908876760628 -0.3396854200317118 -0.3256279891767499 -0.26081979216110446 -0.36988335278343926
-0.3914236883876456 -0.3016093238537807 -0.35754039531976933 -0.2513079524659797 -0.25774148454730983 -0.21953778015607878 -0.23118922001545636 -0.21761049954469303
-0.16515008717457771 -0.24442381360007098 -0.2529901339030273 -0.35408558402905016 -0.35624433728709026 -0.27019686517903563 -0.1507313704714765 0.02269783388520283
0.03874125120728188 0.10873336867875746 0.036899068353418635 0.03472615905910357 0.059663213208071726 0.05832304886944728 0.022300942063379584 -0.21943348914005648
4.0265723758258645 2.6713468775064872 2.2196432807051325 0.6075355696049779 -2.119639665721366 -2.9992735332362264 -2.4474577748554176 -1.1911960881022756
0.13858573917897576 0.1301294179581992 0.3180649268731389 0.3439273742262169 0.2374857108691404 -1.489689372479871 -2.056035858718334 -2.015562695582998
-0.5817080292835161 0.09449565376719131 0.9820531865658041 1.1154106927016678 -0.2761662449664431 -0.5319918102083409 -0.15793854633394178 1.2338647408927705
1.7707704499480648 0.7871093635902815 -0.24470164609440523 0.020744183294056293 1.049533270360725 -0.9370676627837475 1.092950986064499 -1.701888495575655
0.016792079755452195 4.515923477698461 -0.01320701726869259 -0.06933355780671403 0.010976438495201477 0.03565632057373166 -0.05988898264425667 -0.09266957627946448
5.9981348050094265 0.03802482309949549 0.04404520288438034 -0.05214909479162695 -0.06521966088711421 -0.08161333361534646 -0.08503711609261481 0.03474466030830974
0.02791907626108885 0.008768712114116811 0.18475788786852892 -1.4346966754563377 -1.0532138534732232 -0.8578395590495216 0.662369465440401 0.3935387272439132
0.3434813711364948 -0.23181755056646922 -0.9402911129957524 -0.5589223698442347 4.535782056601496 0.07394494829976003 -0.026734594392601375 -0.04911168404241471
0.012589122104826447 0.05177289244659139 -0.02695952527109554 0.046751278578213595 -0.04990182773861747 0.07677164408727619 3.5602664200588285 -0.013092870440870708
-0.04552207869865872 0.03884994776721527 -0.03636285184732811 0.017423053483834813 0.0021368896287859845 0.005857790095800244 0.05612251613482783 0.07845570968230453
-0.5220144440454412 -0.038823826081942826 0.12000964649859636 -0.4192888144303613 -0.12392589322611414 0.46531882575570294 -0.4802678269030631 -0.10004057790803617
0.21425452188883481 0.06125801157011516 2.735546441124623 -0.8761416534573886 0.7730982280618728 0.5061691941832054 1.539554730773427 1.8497161061489806
-0.6334548306059112 -2.0664843548094236 -1.2979877468945737 -1.6379515228498116 2.6173982454949334 0.3927602519938015 0.2910298578636301 0.40737038788334834
0.7816280587829336 -0.7863289379152097 -1.1168630993537982 -0.9255520040804015 -0.5835123508616052 0.264648182957835 0.0832204193228381 1.866503361691195
0.689820158404147 -0.886329253382434 -0.5637988005509553 1.0550862017947604 0.5872512483473317 0.046077925794207504 -1.382407680082655 -0.5361122975964889
-4.481797816819988 0.7745839056525213 0.24542965060507627 0.6996180115416593 0.5672785045203159 0.5995042632353375 0.6492965366157643 0.6774490346672265
0.5888240607196739 0.6276831166531802 -0.5806914926547215 0.5625606373230958 0.5849467484104515 0.6733031076695806 0.7060879911924142 0.734413059652187

fc1.bias f8 [3]
00000000: 4dbb 4ca8 a367 e1bf 2779 1729 3730 c5bf
00000010: 4b5d f349 6726 03c0
-0.5439012801269684 -0.16553391939573567 -2.3937516953844002

fc2.weight f8 [3, 480]
00000000: 18f1 ff26 1525 ae3f b8c9 c5c0 e8f6 a63f
00000010: f036 9551 92a3 a7bf e515 d155 d37a aabf
00000020: d4cd f7b4 5939 b9bf 042f 45a6 71e4 b4bf
00000030: 28e2 d5b7 c1a8 a03f f213 1f54 07b1 bb3f
00000040: e0f0 0849 c9a1 b33f e06f d30a b4ed 613f
00000050: d057 50ee 341f 94bf 00cc d993 c9b1 ac3f
00000060: e0ca fd38 bb22 8c3f 5431 c730 da39 b03f
00000070: a65a c827 f1bf b33f 52dc 6b5e 7ebe b43f
00000080: b228 d263 ac33 adbf 4035 81b8 c364 7a3f
00000090: 4abd 54fc 0e1a a4bf 4e8a 2a28 c07e bb3f
000000a0: 50f5 b353 7542 923f af2e 1bb7 1fc4 afbf
000000b0: 386c a8c1 b362 a6bf 3008 e571 4fef 933f
000000c0: 5ac8 a92e 2f5d ba3f 588b 9359 ade5 9b3f
000000d0: e573 92a0 5956 b5bf 3a6d 6721 776a b73f
000000e0: 10c6 0156 d3dc b83f 5528 0250 0d76 b7bf
000000f0: 04ed 8ad3 64b7 b53f ed0a 7d6f f171 b2bf
00000100: d2bc a644 61a1 a6bf 94f4 3707 c659 a33f
00000110: 5410 f907 178e b03f 2ea1 55d6 99ad b63f
00000120: da50 e79b 90af ba3f cc6f 2d06 3a8e a13f
00000130: aa97 4e18 fb0c a5bf 588d 3e59 160e ba3f
00000140: 4c86 ab4a 2f32 a03f b671 5e88 aeb2 a1bf
00000150: 9024 2b11 e69f 8ebf c226 96b2 6588 babf
00000160: a635 9cf4 9a67 bb3f 1c23 5150 98f2 ac3f
00000170: 86a0 7ac1 79e2 b63f 9065 edd0 c2ad 72bf
00000180: 7e71 19d6 74b5 b13f a0b9 0067 7650 8c3f
00000190: 222c 8106 ff16 b0bf 1bcf f596 2fff aabf
000001a0: 3fdd 7608 0282 babf 8a92 7978 ab52 b23f
000001b0: ccb1 5d3f 4f62 a73f 308a 7518 842c 843f
000001c0: dc06 da77 feb6 a73f 8901 0e5b d13f b7bf
000001d0: ca7c 0a4d b266 b43f acd5 c86f ec36 98bf
000001e0: e6b4 4ea6 f659 b13f 7865 f983 35ac b73f
000001f0: e893 a38d d5ed 8cbf 00d2 bb39 e16d a83f
00000200: f0fa 155d 3b0e 983f 7469 d322 e968 b7bf
00000210: 7daf 0f3f 0391 b6bf f023 1548 f4f3 9b3f
00000220: 20a7 30fb 0352 903f 3069 7f3a ec8c abbf
00000230: 8e6d 4efb 64e7 b4bf 6495 4cb9 9c2c b4bf
00000240: d46d d35e 677b 9dbf 40c3 da11 af77 5b3f
00000250: 346a 0217 34e5 ae3f 908e 283c 4f15 8c3f
00000260: 0897 da6e b364 9cbf 910c 3496 7bdf babf
00000270: 0474 fe9f b2ef bb3f c08b 3d16 f71a 7b3f
00000280: 14b0 d5ac c42b a03f 9195 993d 44b2 aabf
00000290: f687 fe6b d81a acbf dc35 55cc a160 98bf
000002a0: c091 24c4 0f68 91bf 38bd 9fa6 d851 8fbf
000002b0: 306b 7729 3eee 82bf 8094 9824 65f7 93bf
000002c0: 201e 1681 0b6a 973f 4c59 c42d 7c35 ac3f
000002d0: 0010 369c a78f 3a3f b138 d0a9 d804 b4bf
000002e0: 0049 ab29 a0ba 86bf 9027 3711 f57c a03f
000002f0: 76a7 f6b9 0964 b73f e03d 6234 9e47 67bf
00000300: 00e4 a2d0 da5e b8bf 6438 cd2d 0d96 a93f
00000310: 5040 ec38 6966 a5bf 2f1a 91d2 f28e bbbf
00000320: e988 c9e1 4a96 babf 688f 9678 9ba6 a53f
00000330: c012 f14c 092e a53f 24f6 28b1 e766 b33f
00000340: 4ec3 f2b2 7a1b a0bf f4e4 5805 d0d5 b73f
00000350: 2095 d701 0ca0 993f 8083 6fb8 e25e 46bf
00000360: fa4c 62ca 8c16 ba3f 40a2 deee 67df 93bf
00000370: ecf0 c60f ec87 a63f 30ce 135f b9c6 b23f
00000380: b809 4018 a038 823f 8e1c e77d 0ae0 a3bf
00000390: eb38 1bfd eaea acbf f85b 05ad 3fde aebf
000003a0: 778e 65c7 2daf aebf 74e4 5844 59ac b5bf
000003b0: 4029 a03b c876 52bf d08a b9cd be2f 8bbf
000003c0: 40df acad f61f 8c3f f052 f286 9051 74bf
000003d0: b691 2f55 4494 b23f ed18 ec30 96e1 bbbf
000003e0: a89a 3a72 3ecc ad3f f03e 14e6 f308 77bf
000003f0: b9d8 9926 85e6 b7bf ac64 9085 1bc0 b6bf
00000400: 60d4 a08e 7a0b babf 40e3 287d 443e a53f
00000410: fec2 89a3 26cc ba3f 74d8 e821 9cdc a8bf
00000420: e079 8df1 d51a a3bf d499 867e 1fd0 9dbf
00000430: b877 4b87 f5bc a3bf 60fc 1b51 c111 833f
00000440: feb2 e713 94e4 b23f 2853 7b73 6173 90bf
00000450: 6847 607e 30aa 953f 3c47 68c0 337d b2bf
00000460: 6a8f 1606 56fc aebf b0ce 3932 9b0d 79bf
00000470: 70c0 60f3 dbd7 873f a809 bd1b d3ba 89bf
00000480: c894 64f2 a5ea a03f 808f 1c93 444f 69bf
00000490: 00d0 5474 3d9b 7abf d083 c1cc 851c a93f
000004a0: a083 b4f1 94a8 b43f c091 fec3 078f 7e3f
000004b0: 9d57 361f 4c53 bbbf f0f3 4340 7d9d a63f
000004c0: 9cb8 e2f1 77a2 97bf c4cf 1814 4280 b0bf
000004d0: 301b 9f7e ab4d 853f 8687 6fcd ed88 b13f
000004e0: d689 24a3 682a b7bf aa9c da86 88f2 b7bf
000004f0: 4a64 0868 cac6 bbbf 7ec9 2592 03e0 b73f
00000500: 08b7 87bc 51c5 ae3f c016 83da f43a b43f
00000510: b6b9 d35f ff2e b0bf c0ef 86e1 49f2 6a3f
00000520: f893 b670 22c1 833f 7a1d d6ad 1347 bb3f
00000530: 4c1f 4b26 130b a23f e0e2 6a17 7d80 a33f
00000540: 7a1d f560 6172 b33f 20f5 ee17 0962 aa3f
00000550: ee6d d53b ffb0 b3bf 168f 200e 6f48 a6bf
00000560: a631 e202 7ad0 b93f 3056 21c4 e180 9e3f
00000570: d864 de8c 35c3 8dbf f0b6 4d30 5b1b b0bf
00000580: 4ea5 bee2 08fd babf 1add 8d7f 0203 ba3f
00000590: 0b04 3272 b09e b4bf 6288 ec24 ce3d a8bf
000005a0: a441 45de 1a10 a03f b825 6b2f b331 af3f
000005b0: f0d9 823b 3080 8cbf 60f2 0ee6 704e 80bf
000005c0: d1a9 445c 70c6 b5bf 7c0c 3c75 08c4 b73f
000005d0: cc19 bd18 6428 a03f 487a c730 6158 8ebf
000005e0: 1fc0 f681 5a9f b1bf 806d a413 bf7e 80bf
000005f0: 686f 6ac0 7094 a5bf e261 d4aa 26cc a6bf
00000600: a9df da44 01d5 b6bf 1cf1 6e4a dd8c b0bf
00000610: 77d8 c0b5 bcdd b6bf 9658 5523 d9a9 a3bf
00000620: b884 6135 f11d b43f 0071 8e17 db3f 9e3f
00000630: 00de 6e05 9c40 a13f 67a0 79e3 c847 b4bf
00000640: d885 661c 1602 843f a4c9 37e4 46f2 b7bf
00000650: 5ed0 772e 2967 aebf 92bc 055f cd4d b53f
00000660: 6cad fa8c 6863 a7bf 8427 d0cd 8fa0 a3bf
00000670: 8ca2 65b8 a07d a53f 2055 b71f b136 683f
00000680: 0cec b95e 2f2a 9ebf 34b1 e4c7 10c4 a53f
00000690: e843 fbbe 097a b53f f840 134e 60eb b03f
000006a0: dc6f 084f 7e30 b73f e4a4 e702 f55d 99bf
000006b0: 5480 ea6b 09f3 b83f 7dfa 33a4 0937 bcbf
000006c0: 287c 3899 4e54 b1bf 60de c33d 7abc 963f
000006d0: 6c6a 0a29 5bd3 90bf f139 232e 53cf b3bf
000006e0: 3066 a8bd 940c 843f c1ed e674 3bfa afbf
000006f0: 48d3 fcbc 9cc9 a13f 58e4 6def 5fab babf
00000700: 884c d3f2 f8db a03f 9c5a e3f5 e4b4 96bf
00000710: e8e6 9347 8145 933f 11b2 6e26 57d3 b7bf
00000720: 9c7f ee92 6d34 b7bf 318f a9b5 97d6 aabf
00000730: 9279 581a fa09 b53f 48cd 3ef0 050f a63f
00000740: 688c 6a7a 41d9 9c3f 6026 e97d 709e 87bf
00000750: 68d0 9ed9 4b92 a53f 4287 7f63 cd0b b2bf
00000760: e3e6 eefc 82b5 bbbf 58cb 3e8b a758 98bf
00000770: 23a1 8dd8 2a93 bbbf fbde ead7 c415 bcbf
00000780: 6641 8fff e9d3 a4bf 120a 33bf 2ff7 b73f
00000790: 0866 e961 a11f a2bf 1c21 520d 27e5 a4bf
000007a0: b7bc a119 d3f7 b0bf 1c37 cd5b da0a a0bf
000007b0: d8c8 21e9 56ba b33f 3c1f 9c4c afff b13f
000007c0: a035 3082 aa18 70bf 90fd 7960 6869 b93f
000007d0: 6a50 7ea3 6972 b23f 7841 841c 1d84 b53f
000007e0: 56ed 92ba 2b73 b13f dc86 15f9 db5b b4bf
000007f0: 6bbb b944 8d6e a9bf 28c0 7d5f f899 973f
0.058876667986597464 0.04485251763516679 -0.046169826945158365 -0.05171833441321975 -0.09853134792483981 -0.08161077794391863 0.03253751153073764 0.10816999248261519
0.07668741257743106 0.0021885410738899796 -0.01965029434730764 0.05604391031092604 0.01373811977075462 0.06338275614615912 0.07714755269294446 0.08103170209129587
-0.05703486174123053 0.006443752798145852 -0.03926131086552205 0.10740281086558776 0.017831643327544555 -0.06204318151648402 -0.0437217878245168 0.019467583967760216
0.10298437966574295 0.027243336288744174 -0.08334884805886096 0.09146828237083052 0.09711953019884612 -0.09164508059817085 0.08482961811653317 -0.07205113384138047
-0.04419998133686821 0.03779429281346683 0.06466812081004153 0.08858643992210055 0.10424140745391544 0.03428822827729014 -0.04111466094700174 0.10177745512787817
0.03163287912844889 -0.03456635870608997 -0.014953420065824369 -0.10364375696203879 0.10704964134148173 0.05653835277968808 0.0893932435379857 -0.004560242653348992
0.06917505480800476 0.013825345056912408 -0.0628508940582582 -0.05272816388870024 -0.1035462637581661 0.0715739411476283 0.04567191742430374 0.009850532528337202
0.04631800854714438 -0.09081753228202251 0.07969202404864287 -0.023647016833100373 0.06777898369064736 0.09247145149256208 -0.01412550772188044 0.047713316247527615
0.023491790348539376 -0.09144456005325258 -0.08815021791059326 0.027297799014636526 0.015937864500450094 -0.053809530392486926 -0.0816557992497364 -0.07880572818665638
-0.02879106060286836 0.0016764840760680882 0.06034243374707096 0.01371251966799683 -0.027727893486960503 -0.10497257630417979 0.10912624746420369 0.006617512877570897
0.031583925340641056 -0.05214131595566152 -0.05489231413163502 -0.023806121918189635 -0.01699852595005935 -0.015292828164062841 -0.009243474617439768 -0.01949842487205844
0.022865466836746617 0.05509555872611091 0.0004052910046186131 -0.07819894929727657 -0.01109814765132855 0.03220334849500184 0.09137020864605269 -0.0028417673048079933
-0.09519736856135808 0.0499729269418914 -0.04179695911273085 -0.10764997139731557 -0.10385578167327804 0.042286737890463055 0.041366854326530866 0.0757889564055963
-0.031459650367998124 0.09310627108142794 0.025024592983659777 -0.0006826979669051075 0.10190658513083753 -0.0194069137138817 0.04400575344650001 0.07334478923058252
0.008897066822105212 -0.03881867205523647 -0.05647978152920693 -0.06028937327453571 -0.05993025836030779 -0.08466108244546594 -0.0011269526862656837 -0.013274660733434557
0.013732840705059979 -0.0049605985251630486 0.07257487373096336 -0.10891092962637901 0.058198882526359796 -0.005623772363165122 -0.09336120788961723 -0.08886882792320944
-0.10173765165457516 0.04149068858936866 0.1046775960219399 -0.048558119906758984 -0.03731411527290951 -0.029114238832016984 -0.038551018491247147 0.009311208999404907
0.07380033002818817 -0.016065142320104503 0.021157033646950124 -0.07222293326802015 -0.06051892113035147 -0.006116491541991273 0.01164218746643561 -0.012563370975503599
0.033040223921753376 -0.0030895556782457034 -0.006495704704594374 0.0490457355924786 0.08069735432628855 0.007460623106372244 -0.10673976671236436 0.0441702977131867
-0.023080705774810015 -0.06445706358573405 0.010402049829179555 0.0684956194450291 -0.09049085600830806 -0.09354451458294713 -0.10850205459463882 0.09326193159157545
0.06009917665856618 0.07902460417525514 -0.06321712579276703 0.00328936033130664 0.009645718636258835 0.10655329698612617 0.03524074404191299 0.038089665516457094
0.07596405617834093 0.05152920167118169 -0.07691950999053862 -0.04352137610865563 0.10083735056304607 0.029788520427550036 -0.0145324882139896 -0.06291742257391397
-0.10542350326308744 0.10160842527499306 -0.08054640567753794 -0.04734653664333234 0.031372871048577694 0.06092605546798374 -0.013916374984870722 -0.007962114353966487
-0.08505918743745801 0.09283497678920755 0.03155815889344957 -0.014817008305667248 -0.06883779213853856 -0.008054249560294435 -0.04214813565087533 -0.044526298859810756
-0.08918769770650549 -0.064649420425614 -0.0893209403737688 -0.03840521389308653 0.07858188203091998 0.029540465653199455 0.03369605604478565 -0.07922034791556741
0.009769604436601506 -0.09354060241438461 -0.05938080494152652 0.08321841783412001 -0.04568030091226202 -0.03833436381690006 0.04197408915462572 0.0029557666254996923
-0.02945779815352627 0.04251148643592942 0.0838934031737747 0.06609155565388736 0.09058370046153591 -0.02477248029928071 0.09745844731014702 -0.11021480807174018
-0.06769267311800375 0.02220335962280584 -0.01643125951759787 -0.07738227726370163 0.00978962138929082 -0.06245599557902493 0.03474130446412588 -0.10417747111741116
0.03292825664689142 -0.022174432285135923 0.018819828027495072 -0.09306854904452445 -0.09064373814771759 -0.052418461728647954 0.08218348639682052 0.043083367897816915
0.028172515007679172 -0.011532667963496113 0.0421317771100867 -0.07049258879808654 -0.10823839831473551 -0.023775689958437013 -0.10771434580749832 -0.10970716735289081
-0.04067927593826219 0.09361551683381489 -0.03539757080279676 -0.04081079518897665 -0.0662815034463503 -0.031332801538708405 0.07706206504534252 0.07030768986089425
-0.0039297733774338595 0.09926464419731063 0.07205829850710335 0.0840471453304924 0.06816361718204197 -0.07952666121630209 -0.04967156852659723 0.023048287227936864

fc2.bias f8 [3]
00000000: 7b14 ae47 e17a 843f 7b14 ae47 e17a 843f
00000010: 7b14 ae47 e17a 843f
0.01 0.01 0.01
