CNN/CNN_Data/sine_wave_model_cnn.pth (torch, 37879 bytes, 6 tensors)

conv1.weight f8 [32, 3, 1]
000000 dd df fd 2e 31 8d e2 3f 09 7d 90 a6 68 ff ec 3f
       0.5797353666121087 0.9061778310023395
000010 8b ca c3 aa c1 66 ec 3f 6c ef 21 bb cc 6e e6 3f
       0.8875435195207769 0.7010253577168277
000020 37 2d 09 f1 c5 6c de 3f a8 17 d9 dd 9c d1 c8 bf
       0.47538898981720784 -0.1938968737833282
000030 26 fa bc cb 24 aa d4 bf 78 4e fa e5 44 bd e2 bf
       -0.32288474937732514 -0.5856041423562166
000040 aa 5c e7 5c 74 10 e1 bf 9c b7 83 6c 6f 73 ea bf
       -0.5332586111570852 -0.8265912169861056
000050 5b b2 91 ff cd e0 e0 bf cf b8 44 8e 3a d8 e0 bf
       -0.5274419776520277 -0.5263951090508047
000060 0c c3 d3 e9 a8 af cc 3f bc bc 8c 1d 59 e8 e3 3f
       0.22411071221679213 0.6221128060477876
000070 09 64 e9 a2 4d 19 d8 3f ff bb 1c b4 d3 0b e4 bf
       0.37654438886016856 -0.6264437215630777
000080 5a 08 c9 64 39 9f ea bf 65 da 94 8f 73 4d f4 bf
       -0.8319365471327373 -1.2689090355539971
000090 c6 89 34 b3 13 2e 00 c0 23 50 12 78 71 66 fc bf
       -2.0224985123070125 -1.7750105562490794
0000a0 d6 b0 73 15 c9 d8 ea bf 32 07 fa 00 b2 2b f8 bf
       -0.8389630717261081 -1.5106678045417081
0000b0 44 c6 e3 7e 30 a8 f5 bf 1f 7b fd 88 a2 00 f5 bf
       -1.35356187406832 -1.3126550055673716
0000c0 4c 09 fa 05 99 c2 e2 bf 34 8d 07 cf 5f 7d d6 bf
       -0.5862546078426845 -0.35140223710751006
0000d0 27 aa 25 5a 6f 63 e7 bf 45 23 a4 0e d7 6e ee 3f
       -0.7308880577741704 0.9510302816353052
0000e0 f9 90 62 9b d7 ef ea 3f 78 8b 19 47 f4 06 d6 3f
       0.841777614103676 0.344174451287635
0000f0 40 7a 68 b6 e4 81 f7 bf e1 66 5d 66 6a 2e ec bf
       -1.4692122578923232 -0.8806659697831628
000100 bd 9c 26 61 d3 bb e0 bf 60 72 dd f3 34 99 e7 3f
       -0.5229279420354015 0.7374520075787352
000110 d2 80 85 e2 e7 ed e0 3f a0 c4 09 4e 3e 23 d5 3f
       0.5290412353752123 0.33027608509935114
000120 e8 86 5e 7a 6f 96 ef 3f bb 27 40 02 ca 0d ef 3f
       0.987113703730043 0.9704332393605378
000130 71 2d 3a 66 b6 1c f7 3f ed f5 3a 1d 43 93 df 3f
       1.4445098870517905 0.49336316923640205
000140 c2 06 3a d4 c0 6a 8f bf ec 54 32 9b 08 62 de bf
       -0.015340334393161629 -0.47473349719923763
000150 ec ff c1 f1 06 83 ec 3f ba 7b ba 55 b4 e8 f1 3f
       0.8909945222694637 1.1193126057403178
000160 e4 34 cb 42 0b 37 e3 3f 63 8a 20 da d8 54 e3 3f
       0.6004692368093427 0.6041073093695782
000170 9a 7a 59 5e 4a 65 f1 3f eb 7b 4e 3a 1d e8 ed 3f
       1.0872291265037917 0.9345842493820532
000180 74 a9 0d b9 f3 6e f3 3f b4 e0 14 c8 6a 0c f5 3f
       1.2145879009863991 1.31553152233941
000190 cf 35 d7 10 53 c4 f1 3f a5 df 10 14 78 8e ef 3f
       1.110430780204627 0.986141242209659
0001a0 14 cb 89 7f ab 04 e4 3f 56 3f 15 4f 23 70 ec 3f
       0.6255700579625647 0.8886887116040991
0001b0 83 02 3d 92 63 09 dd 3f 0a 82 fb 99 6b 79 f0 3f
       0.45369805604062935 1.0296436324061937
0001c0 14 e3 68 bc 96 9c f5 3f 69 d7 df 65 a7 6b eb 3f
       1.3507296905283441 0.8568913449987409
0001d0 5d 77 1a 26 c1 60 da 3f 6c a7 7e 0e 76 95 cd 3f
       0.41215542527230814 0.23112369258643228
0001e0 4c ff 23 95 88 90 f3 bf d0 e3 cc cf 93 30 f3 bf
       -1.2227865052991147 -1.1993597142411438
0001f0 09 d1 d4 c1 70 2d fa bf ed 7e 82 75 7b f9 01 c0
       -1.6360938617263534 -2.2468175106476935
000200 b3 e9 b0 02 09 9c fd bf 57 0c fe 45 31 6d 02 c0
       -1.8505945305938496 -2.303316637816845
000210 2d 82 b0 5d 12 6f c1 3f 70 dd 31 db 61 31 dd bf
       0.13620214056665372 -0.45613905339947447
000220 8e bb 15 73 07 96 b8 bf e6 77 37 4c 1e 73 e4 3f
       -0.09603926238717816 0.6390525330168628
000230 9b c8 dd ae ba 34 9e 3f 03 56 e8 c8 f5 f2 d8 bf
       0.02949802105235531 -0.3898291074741282
000240 4f 6e e5 a1 23 65 d5 bf 49 61 29 d5 59 47 e2 bf
       -0.3342980462091178 -0.5712098277390761
000250 45 50 23 8e 05 16 ec bf 04 e3 79 d2 47 35 e3 bf
       -0.8776881958133421 -0.6002539740430568
000260 16 62 0d 4f 42 3f e5 bf 19 77 e3 f2 87 95 f1 bf
       -0.6639720481862834 -1.0990066039880217
000270 76 b3 a4 c6 b2 58 ec 3f bd a7 83 0e e5 64 f0 3f
       0.8858274345162573 1.024632507988357
000280 40 36 77 0c 7b 62 ec 3f 9c 70 df 6f 0b 96 f2 bf
       0.8870215648145816 -1.1616320009261818
000290 ec c8 8f 84 3e bd f3 bf 86 15 da d7 76 2a f2 bf
       -1.2337021997632815 -1.135367243930291
0002a0 82 a9 fc 90 f3 f9 f6 bf dc 24 b7 4b e6 02 fc bf
       -1.4360232986024077 -1.7507079084046415
0002b0 ae b7 7b 88 40 70 fc bf 85 2b 63 13 dc de fd bf
       -1.7774052935960571 -1.8669090993232385
0002c0 04 d3 e9 33 0b bb fb bf fe 4f 04 84 b4 2d f0 bf
       -1.7331649806848768 -1.0111584813030272
0002d0 16 84 e3 16 65 f7 f1 bf e7 03 6d 0a ab df f5 bf
       -1.1228991407481366 -1.367106476522389
0002e0 a3 d7 e8 b5 84 0a e4 bf d2 b3 53 56 84 78 da 3f
       -0.6262839844628058 0.41360577040069046
0002f0 f3 2e 08 95 2a b0 e2 3f 0f e2 c1 29 8f d3 cb 3f
       0.5840046797543138 0.21739377535756474

conv1.bias f8 [32]
000000 dc 23 b6 e7 2a ea 02 c0 f6 50 e0 bb ad 32 eb 3f
       -2.36433964752767 0.8499363584001276
000010 f5 a8 4f 1c 7a 9b d7 3f b3 3f 13 6f 1f ca f4 bf
       0.36886456265223383 -1.299346383941139
000020 b6 57 c6 e4 94 5d d4 bf b5 7f 91 09 e6 7c e2 3f
       -0.3182117685440703 0.5777464091188366
000030 eb a2 8a 1e 95 72 08 c0 82 73 57 9e 2f 18 03 c0
       -3.055948484998557 -2.3868095751226415
000040 30 23 30 f4 3d 9d e2 3f db 14 e1 ed ed 5e c7 3f
       0.5816945809648129 0.18258451571651943
000050 7b 34 25 9a 08 cf 0b c0 35 dd 0d dd 49 5f c7 3f
       -3.4760906260112825 0.18259547513637533
000060 9e 7f 76 47 22 c7 05 c0 cd b3 65 60 32 ab 94 bf
       -2.7222333510434984 -0.02018431390154145
000070 df 87 c4 28 75 70 dc 3f fe 71 c0 4d c0 11 01 c0
       0.44436387044163256 -2.133667571483101
000080 66 1a de 24 95 a2 f3 bf 96 f6 49 bf f4 88 f3 bf
       -1.227193016065621 -1.2209365341399567
000090 2b 1e 8c 34 65 db ff bf 94 94 00 10 11 13 db 3f
       -1.9910633137350355 0.42303873598786734
0000a0 fb 79 33 75 ed a8 f5 bf a6 76 09 e9 00 7e fc bf
       -1.3537420824210347 -1.7807625868803512
0000b0 5c 6f 62 2f e3 49 00 40 4b 8f 9a d2 e4 e0 f6 3f
       2.036077852431772 1.4299057223042435
0000c0 40 41 60 d5 3c de f6 3f 38 4c 06 6e 72 74 e2 3f
       1.4292572340965108 0.5767147206228236
0000d0 79 00 51 cd 5a 9f c2 3f 23 46 89 44 40 8e ed bf
       0.14548811936583997 -0.9236146296117947
0000e0 bc 39 f2 1a 3f 66 f8 bf 06 7c 47 ba e9 a1 09 c0
       -1.5249625256143267 -3.204059081369908
0000f0 b8 c9 3f 1a 85 f5 01 c0 10 9b aa a7 c1 ec c7 3f
       -2.2448827791897337 0.18691273390614827

fc1.weight f8 [3, 960]
000000 2d d7 1b 6a d3 42 be 3f 30 51 c1 96 28 4b af 3f
       0.11820718136354165 0.06112028923294799
000010 ea db 4e 5a e9 0f a6 3f 61 df 25 6f 34 d3 a7 3f
       0.04309014537232499 0.046533239906181086
000020 d0 d7 27 fe 3d 6a 8b bf 51 b6 45 53 6f 0e a5 3f
       -0.0133862345873971 0.04112575427539567
000030 5b 08 f9 4b 17 9d 92 bf 81 0b 33 1f 53 d1 96 bf
       -0.01817737961960862 -0.022282885340938478
000040 e7 7d 0c f5 34 e8 b6 3f 55 5a 76 69 1b a9 b9 3f
       0.08948069555889725 0.10023661923183032
000050 d1 fa 3f 0f 42 85 b1 3f 63 36 b1 c3 94 90 77 bf
       0.06843960640251658 -0.005753117667223503
000060 01 27 d6 2e 89 c3 9a bf 09 d6 9a d9 9f a6 ad bf
       -0.026136535152125443 -0.057911868393983275
000070 5d 5c b8 8e b9 fa 8b 3f 2a 8b 97 21 e6 8e a7 bf
       0.013661813419316876 -0.046012107468206345
000080 f0 8a 26 3b 9b c4 89 3f 0b 91 81 27 52 ef a9 bf
       0.01258202814353157 -0.05065399868252215
000090 a4 1a f5 9e ab 31 88 bf c8 b7 54 89 0f 87 b8 bf
       -0.011813488758560205 -0.09581086256795779
0000a0 88 cc d1 2c a0 d6 b8 bf 92 45 11 2f ec 40 b0 3f
       -0.09702492803789842 0.06349064015491582
0000b0 e3 5b 20 ef 31 ed b3 3f 00 61 2d a1 cd b7 af 3f
       0.0778380593113606 0.06194918243881098
0000c0 3d c2 a9 f3 6a 72 b2 3f 5a 90 eb 95 63 13 97 3f
       0.07205837677771228 0.022534900689507566
0000d0 b6 d6 45 da c0 c2 b6 3f 43 fa 68 38 cb 5c b1 bf
       0.08890919999052013 -0.067822171470632
0000e0 82 33 ba 33 a6 cf b9 bf 35 89 ba a4 83 3d ab 3f
       -0.10082472575068205 0.053203691347578554
0000f0 ee 5e 10 c4 9c f0 ba 3f 07 6c 77 be 6f 32 b2 3f
       0.10523395334928029 0.07108209991513102
000100 a8 6f 73 be 79 55 ab 3f bd bc 06 b0 92 65 8e bf
       0.053386501787570595 -0.014842172619721311
000110 9c 74 df e8 08 48 af 3f 5b c4 d3 5b fe b3 a1 3f
       0.061096456934799565 0.034576367101075
000120 05 ca 5d 99 02 20 94 3f 4a a0 fa 2f 5a 31 a8 bf
       0.01965335904191969 -0.04725152812653784
000130 31 cf 4a f6 7b 05 b8 3f d3 40 57 c2 34 63 b4 3f
       0.09383368266099691 0.07963876480721703
000140 e0 84 61 0b 20 75 a9 3f 4d 86 a1 b8 e9 3d 83 3f
       0.04972171915938772 0.009395433375348672
000150 16 fc 9d 86 d1 7d aa bf 8b 25 39 af cd 46 98 bf
       -0.05174116867328153 -0.023707593745972793
000160 c1 59 25 85 f5 7d 99 bf 64 20 da af e5 5c 76 3f
       -0.024894558192807063 0.005459687437571945
000170 6c b9 1b be fe 50 a3 3f 86 45 ed 67 b1 85 a8 3f
       0.037727318483905176 0.04789499658239564
000180 5a f4 83 98 0d 56 a6 bf 81 f2 d1 6c 79 09 b7 bf
       -0.043625283115013416 -0.08998831660023578
000190 95 83 87 30 50 90 c3 bf 26 c2 c8 89 81 ff a9 bf
       -0.15284159059140437 -0.0507774811452502
0001a0 24 ab a4 53 15 81 b4 bf 53 49 54 fd e6 5d 97 bf
       -0.08009465496131135 -0.022819146358480435
0001b0 38 24 98 e3 56 5c 93 3f ca da 54 1f 81 56 be 3f
       0.018906934396032166 0.11850745215347583
0001c0 a8 30 c2 f0 62 ff c4 3f 04 f0 bd e5 b3 65 b5 3f
       0.1640437770441896 0.0835831104176919
0001d0 e4 0d 3c ac 83 01 ab 3f 11 24 7a 0d fe 1d bd bf
       0.05274592854950891 -0.1137388976004703
0001e0 14 c6 ba 14 a9 cd c4 3f 78 48 75 6e fb f9 9b bf
       0.1625262595385243 -0.027320793740110066
0001f0 74 c1 0d a9 62 0e b4 3f 40 ea 56 5e 85 4e a0 3f
       0.07834450366295248 0.0318490674648797
000200 45 f4 4f 49 0e 99 a0 bf 64 20 46 ea 30 6d b3 3f
       -0.03241772313047212 0.07588487357691204
000210 79 2b c7 78 7a df b0 bf 70 db 7c 37 34 0c 71 3f
       -0.06591000984842123 0.004162029239345041
000220 f9 b2 18 2b 28 4f b3 bf 24 6b 74 16 32 97 95 bf
       -0.0754265885559099 -0.021084578152208114
000230 91 31 87 35 88 d6 94 3f 90 58 eb cd d2 89 ac bf
       0.02034962488851161 -0.05573900951064659
000240 6e 14 0d 03 18 76 ac bf 80 f7 ea 98 d1 25 73 3f
       -0.055588484165618776 0.0046747386356268406
000250 38 1a 9b e8 a2 f7 89 bf b0 ff b8 49 90 c1 7d 3f
       -0.012679360126083158 0.0072646747826751595
000260 7c 91 32 f6 ff d6 ac 3f 86 7f 71 f2 91 a1 b0 3f
       0.05632781868306133 0.06496536416079665
000270 f6 37 78 be 3e 36 a7 3f 80 59 78 30 7a 18 8b bf
       0.04533573222225577 -0.013230280498686353
000280 89 04 ed 42 a1 8e bd bf cc 59 d5 84 dd 63 95 bf
       -0.11545760997707268 -0.020888768417842304
000290 87 56 22 bb 22 e2 bb 3f 64 1c 32 aa 9b 4c a7 3f
       0.10891930645660795 0.0455063481577376
0002a0 63 57 c8 cc cc 60 a1 3f 16 c5 c7 87 b6 30 9b bf
       0.03394165038859744 -0.026553012883543912
0002b0 c9 db ee 06 8c 09 92 bf 45 17 50 95 d1 cd c1 bf
       -0.017614543841513872 -0.13909358778635741
0002c0 7f 3f 1f f3 a7 28 c4 bf 0a c2 36 6c 57 51 b2 bf
       -0.15749072428888763 -0.07155367271366955
0002d0 3c 17 a0 5e 7d d2 b2 bf 2b 1d 09 e0 52 2f b2 bf
       -0.07352431831540412 -0.07103460282916234
0002e0 1e a6 bd b7 d8 04 99 bf c0 03 29 29 3c 3a 85 bf
       -0.024432550635003485 -0.010364980703458815
0002f0 2c 4f aa b8 47 e0 ab 3f de d5 bc 33 ad f6 ab bf
       0.05444549683775643 -0.05461636787951439
000300 57 f2 34 3d 05 7f b3 bf 38 56 92 df d7 d1 8b 3f
       -0.07615692848498533 0.01358383799587691
000310 c0 8f 20 fd 9a 2e a5 bf 26 db 5a 27 0e f1 b0 3f
       -0.041371196173968894 0.06617821179211755
000320 ba dd ea e8 f2 39 b1 bf 19 8c 50 08 39 9c ae bf
       -0.06729047953091696 -0.059785635247202325
000330 61 2a 6c cb 46 b8 b0 bf 44 b7 7d 7b 38 88 9c bf
       -0.06531183687563093 -0.02786339048127863
000340 3c a2 04 8b ff 7b ae 3f 28 f1 76 43 c6 6f 94 3f
       0.05953978130338952 0.01995763575335832
000350 50 8a 32 19 b5 27 a7 3f 8d 9f 50 26 36 d1 a0 bf
       0.04522481854043703 -0.03284615724288562
000360 82 ff 02 24 d2 02 9f bf 72 f8 cd 24 2e a9 a4 3f
       -0.030284198234539435 0.040353242867227204
000370 79 48 ca 89 28 1b ce bf 51 48 74 e9 7f 04 bd bf
       -0.2352038071445042 -0.11334990930143475
000380 ff c6 99 25 31 0a ab bf d9 89 27 c8 fc 97 af 3f
       -0.05281213363640624 0.06170644706050483
000390 05 6f f5 05 32 06 68 bf f5 71 d1 27 b3 2a 7e 3f
       -0.002932641698562113 0.007364940477682759
0003a0 0e 9e fc 46 3e 3c 93 3f 83 55 fc 01 08 c2 bd bf
       0.01878449733990633 -0.11624193237761031
0003b0 0f f6 84 2a a3 f9 c1 bf 7b 36 92 fb 9f b1 b5 bf
       -0.1404308278669508 -0.08474159137605312
0003c0 4c e5 48 bf e3 9e c9 3f 49 ab a1 20 44 e7 c2 3f
       0.2001614269263804 0.1476826819738
0003d0 b7 a7 ff 2d 2f 23 b4 3f af 1d 44 02 f5 fc 8e 3f
       0.0786618697453879 0.015130914813666544
0003e0 3b a4 ca 6c 24 68 a9 3f 43 54 cc af ba 21 7a bf
       0.04962266757986141 -0.0063798229646368524
0003f0 c2 59 42 a3 7f 9c a9 3f 10 9e ff 90 0f b3 a0 bf
       0.05002211444768846 -0.03261612553597726
000400 be 16 8b 25 f2 b5 ae 3f 02 e7 79 2c 5a 43 9c 3f
       0.05998188694279126 0.027600678410158792
000410 f3 61 d3 91 24 af a1 3f 3b 49 20 64 3f 90 a1 3f
       0.034539358902922056 0.034303647015024606
000420 6c 06 49 b9 75 9c a1 3f 0d a4 04 cb 93 45 8d bf
       0.03439681898863686 -0.014292864449616994
000430 28 30 3d 17 0c ef 8d 3f f7 4f e2 a0 51 87 a3 bf
       0.014616102656553734 -0.03814177597919859
000440 68 c0 56 23 58 51 6e bf ee 65 b0 b8 30 d2 a4 bf
       -0.0037008973547117303 -0.04066612486367292
000450 25 09 27 fe 3f 56 69 3f aa d7 86 18 1e af a5 bf
       0.0030928850039525662 -0.042351665967927346
000460 82 02 82 6c c5 85 c1 bf f9 0e ba 54 41 e1 a3 3f
       -0.13689487264857197 0.03882793578398309
000470 36 f3 25 56 4c 79 a8 bf 7a 9d 4a c2 f9 69 05 3f
       -0.04780043174375807 4.0843901193905526e-05
000480 c2 06 53 c5 3e ab 86 3f d8 5f 40 73 73 c6 c3 3f
       0.011068811795101555 0.1544937432051927
000490 9a 43 2d f2 e0 1f b9 3f a4 28 ca 7f 77 5b af 3f
       0.09814268028755038 0.061244711255384915
0004a0 b4 b1 73 ad d2 83 a9 bf ba bd 08 b6 71 48 98 bf
       -0.04983385436375745 -0.02371385263012169
0004b0 dc 99 ad aa 1c fa ab 3f 98 2e fc 9c 8b f0 9c 3f
       0.05464257796738867 0.028261357742890597
0004c0 0a 8c 3a 7a f9 3c ab bf 54 b5 b6 46 ee 1a 92 3f
       -0.053199573679442905 0.01768085772134971
0004d0 8c 17 15 51 71 80 91 bf b2 05 2f 58 23 a8 b2 bf
       -0.0170915323008312 -0.07287808325693027
0004e0 00 18 45 06 68 d2 90 3f 38 9f a5 67 d5 34 a9 3f
       0.016427636511501476 0.04923121347638787
0004f0 3d 53 d3 d3 bc 58 a2 bf a6 5d 83 37 47 27 ae bf
       -0.035833264215091344 -0.05889341881418923
000500 0c a3 1b 2e c7 9d a8 3f e0 f9 fc 4d 20 48 ae 3f
       0.04807875097123401 0.059144029159586387
000510 02 4b ef 49 ef 02 b1 3f 62 18 73 35 ea 76 98 bf
       0.06645103030249902 -0.023891124260238768
000520 76 94 85 95 e6 42 9e bf eb f0 5b 0c 78 32 a4 bf
       -0.02955208098991987 -0.03944754744404285
000530 51 08 74 a1 b9 9e a6 bf 1a b2 e0 5d 2d f4 b3 3f
       -0.0441797265612115 0.07794459859787431
000540 ea 93 95 31 e2 4a b2 3f 90 0b e5 f1 f0 4c aa 3f
       0.07145513258508598 0.05136826470199829
000550 e2 3d e7 e5 cd 00 c9 bf 51 5e 20 c2 94 c0 97 bf
       -0.19533704496141896 -0.023195576046502634
000560 a0 34 5c a0 27 b0 c0 3f 67 99 40 a4 4c 7c ae 3f
       0.1303758175858194 0.05954207901986557
000570 55 96 97 30 da 0e ad 3f a4 0e 82 5a f3 ca 71 3f
       0.05675393908658736 0.004343939399521855
000580 63 c4 18 b7 ed 80 b8 bf dd b4 a4 ee 64 15 ba bf
       -0.09571729393134513 -0.10188895059828292
000590 63 0d 63 e6 0a 45 a5 bf 80 46 c4 56 b5 24 b9 bf
       -0.041542378066447914 -0.09821637504890113
0005a0 ac f6 16 fd cb 21 34 bf 9e e1 a6 5e 0e ee b2 3f
       -0.00030719022933199214 0.07394494829976003
0005b0 3a 29 5a 42 50 60 9b bf 8e 97 a0 a9 2a 25 a9 bf
       -0.026734594392601375 -0.04911168404241471
0005c0 08 fd cd 5d 53 c8 89 3f 38 3f c1 ff f9 81 aa 3f
       0.012589122104826447 0.05177289244659139
0005d0 d6 8f 6b 1d 47 9b 9b bf 20 48 14 99 c8 ef a7 3f
       -0.02695952527109554 0.046751278578213595
0005e0 0a c5 4b 7c bb 8c a9 bf d6 70 9d 74 4e a7 b3 3f
       -0.04990182773861747 0.07677164408727619
0005f0 12 84 6b 1e a8 35 ab 3f c0 9d d5 52 6f d0 8a bf
       0.05314374324166961 -0.013092870440870708
000600 3a 6b 83 7e ab 4e a7 bf 3e 16 39 ee 23 e4 a3 3f
       -0.04552207869865872 0.03884994776721527
000610 6e 77 f2 d6 26 9e a2 bf ac 5b a3 53 59 d7 91 3f
       -0.03636285184732811 0.017423053483834813
000620 e0 f8 43 e2 61 81 61 3f 90 74 36 8e 56 fe 77 3f
       0.0021368896287859845 0.005857790095800244
000630 28 94 bc 26 17 bc ac 3f a8 1c 45 63 ac 15 b4 3f
       0.05612251613482783 0.07845570968230453
000640 8b 20 57 bc c2 1f d3 bf 46 4b a6 d7 8c 6c bf bf
       -0.29881351845370635 -0.12275009407885049
000650 ad d8 f4 4d 57 cb 98 bf e2 c2 67 4d 69 0a b5 3f
       -0.024213184483607254 0.0821901144006563
000660 cc 75 a3 30 46 d3 8b bf cd d2 8b 4b ee 41 b5 3f
       -0.013586567267732351 0.083037274783986
000670 db 47 47 b3 de a6 8a 3f c5 90 96 40 f4 b0 a7 3f
       0.01301359161962872 0.04627192772321246
000680 5b b0 1b 99 59 75 aa bf c8 ce 96 ef f7 9b b0 bf
       -0.05167655939098444 -0.0648798904356297
000690 a0 0a 13 8e 4a b1 81 bf da b7 f4 66 6e bb a5 bf
       -0.008638937435880678 -0.04244561201845416
0006a0 b8 c5 22 ea 98 12 9f 3f 7e 7b 19 75 5f b5 a4 3f
       0.030344380655781683 0.040446265262963785
0006b0 58 ee eb 65 6e 1b a9 3f 26 51 96 24 4d 42 a9 bf
       0.04903740877304291 -0.04933396407719419
0006c0 28 e7 2a f7 7d 94 85 bf 30 ef dc d5 91 cf ad 3f
       -0.01053713236375449 0.058224255901647815
0006d0 d4 36 99 70 13 45 94 3f b2 64 58 0d bb da b3 3f
       0.0197947537874857 0.07755631519138964
0006e0 50 0a d4 00 97 ba ad bf 1a 03 71 ae 77 3c 9d bf
       -0.0580641926299178 -0.028550977727948547
0006f0 d8 18 6d f6 d5 82 90 bf cc 6e db 0b 64 cb a3 3f
       -0.01612409893575592 0.038661123702437544
000700 88 be 81 77 8a d1 a7 3f ba 71 00 27 3a 32 b4 bf
       0.04652054508994491 -0.07889140560332111
000710 68 a1 b2 16 11 9c 91 3f 54 7a c6 bb 0c 68 b0 bf
       0.017196909914362207 -0.06408767303808222
000720 80 0e de dc 35 da 8c 3f 66 09 ad 24 a0 bc b3 bf
       0.01408807831081238 -0.07709694762619321
000730 d6 e0 ed 86 71 23 ca bf d8 75 9f c1 2b 8a ba bf
       -0.20420664871540478 -0.10367082097169289
000740 45 b4 d3 fe 2f 3f b8 3f 1f 2b c3 27 96 a7 96 3f
       0.09471416446076926 0.022123666932013394
000750 f1 ec 80 d6 cf b4 b7 3f e3 10 a5 ff 67 b7 91 bf
       0.09260272013573335 -0.01730120179969753
000760 3e 29 3d 55 d5 7d 9a 3f fd e3 d1 f9 9d eb 91 bf
       0.025870641067095017 -0.01750037038116047
000770 91 17 b5 01 b5 ee bb bf 6c dc 1e 0e 0a e9 b8 bf
       -0.10911113063511226 -0.0973058971857072
000780 5b e3 96 b8 84 2e d3 bf 6f 0d 50 3c 7c c7 b4 3f
       -0.29971426035222287 0.08116890404203557
000790 aa 7e f8 4d f0 d5 7a bf fa 2c 96 bf cb 86 b0 3f
       -0.006551684083688928 0.06455682208450134
0007a0 a1 17 a1 ff 52 e4 af bf 3c ad a3 74 05 a7 a1 bf
       -0.062288850502724154 -0.034477396476939565
0007b0 60 d8 13 b3 e5 20 8f 3f 5e bf b2 26 fa 04 a5 3f
       0.015199465301048487 0.04105359766378912
0007c0 0e 62 8d 84 5f 86 a6 bf e0 a4 db 56 d1 83 66 bf
       -0.04399393551893037 -0.0027484024675358126
0007d0 70 e5 73 f7 c8 67 a3 3f 21 ed db 86 62 9b b3 bf
       0.03790119190848429 -0.07658973495920353
0007e0 aa ab 4f 3c 00 6a b3 bf 90 83 40 29 57 96 78 bf
       -0.07583619568292357 -0.00600275084801262
0007f0 58 d5 b7 fd ac 70 8b bf 60 ca 85 79 5e 47 8d 3f
       -0.013398505680906211 0.014296281894279506

fc1.bias f8 [3]
000000 fe e4 5a fd b8 79 be bf 88 6b 86 31 dd c5 a1 3f
       -0.11904483972002208 0.03471270780138186
000010 2a 1d a5 3f 2d ea d6 bf
       -0.3580430146725627

fc2.weight f8 [3, 480]
000000 18 f1 ff 26 15 25 ae 3f b8 c9 c5 c0 e8 f6 a6 3f
       0.058876667986597464 0.04485251763516679
000010 f0 36 95 51 92 a3 a7 bf e5 15 d1 55 d3 7a aa bf
       -0.046169826945158365 -0.05171833441321975
000020 d4 cd f7 b4 59 39 b9 bf 04 2f 45 a6 71 e4 b4 bf
       -0.09853134792483981 -0.08161077794391863
000030 28 e2 d5 b7 c1 a8 a0 3f f2 13 1f 54 07 b1 bb 3f
       0.03253751153073764 0.10816999248261519
000040 e0 f0 08 49 c9 a1 b3 3f e0 6f d3 0a b4 ed 61 3f
       0.07668741257743106 0.0021885410738899796
000050 d0 57 50 ee 34 1f 94 bf 00 cc d9 93 c9 b1 ac 3f
       -0.01965029434730764 0.05604391031092604
000060 e0 ca fd 38 bb 22 8c 3f 54 31 c7 30 da 39 b0 3f
       0.01373811977075462 0.06338275614615912
000070 a6 5a c8 27 f1 bf b3 3f 52 dc 6b 5e 7e be b4 3f
       0.07714755269294446 0.08103170209129587
000080 b2 28 d2 63 ac 33 ad bf 40 35 81 b8 c3 64 7a 3f
       -0.05703486174123053 0.006443752798145852
000090 4a bd 54 fc 0e 1a a4 bf 4e 8a 2a 28 c0 7e bb 3f
       -0.03926131086552205 0.10740281086558776
0000a0 50 f5 b3 53 75 42 92 3f af 2e 1b b7 1f c4 af bf
       0.017831643327544555 -0.06204318151648402
0000b0 38 6c a8 c1 b3 62 a6 bf 30 08 e5 71 4f ef 93 3f
       -0.0437217878245168 0.019467583967760216
0000c0 5a c8 a9 2e 2f 5d ba 3f 58 8b 93 59 ad e5 9b 3f
       0.10298437966574295 0.027243336288744174
0000d0 e5 73 92 a0 59 56 b5 bf 3a 6d 67 21 77 6a b7 3f
       -0.08334884805886096 0.09146828237083052
0000e0 10 c6 01 56 d3 dc b8 3f 55 28 02 50 0d 76 b7 bf
       0.09711953019884612 -0.09164508059817085
0000f0 04 ed 8a d3 64 b7 b5 3f ed 0a 7d 6f f1 71 b2 bf
       0.08482961811653317 -0.07205113384138047
000100 d2 bc a6 44 61 a1 a6 bf 94 f4 37 07 c6 59 a3 3f
       -0.04419998133686821 0.03779429281346683
000110 54 10 f9 07 17 8e b0 3f 2e a1 55 d6 99 ad b6 3f
       0.06466812081004153 0.08858643992210055
000120 da 50 e7 9b 90 af ba 3f cc 6f 2d 06 3a 8e a1 3f
       0.10424140745391544 0.03428822827729014
000130 aa 97 4e 18 fb 0c a5 bf 58 8d 3e 59 16 0e ba 3f
       -0.04111466094700174 0.10177745512787817
000140 4c 86 ab 4a 2f 32 a0 3f b6 71 5e 88 ae b2 a1 bf
       0.03163287912844889 -0.03456635870608997
000150 90 24 2b 11 e6 9f 8e bf c2 26 96 b2 65 88 ba bf
       -0.014953420065824369 -0.10364375696203879
000160 a6 35 9c f4 9a 67 bb 3f 1c 23 51 50 98 f2 ac 3f
       0.10704964134148173 0.05653835277968808
000170 86 a0 7a c1 79 e2 b6 3f 90 65 ed d0 c2 ad 72 bf
       0.0893932435379857 -0.004560242653348992
000180 7e 71 19 d6 74 b5 b1 3f a0 b9 00 67 76 50 8c 3f
       0.06917505480800476 0.013825345056912408
000190 22 2c 81 06 ff 16 b0 bf 1b cf f5 96 2f ff aa bf
       -0.0628508940582582 -0.05272816388870024
0001a0 3f dd 76 08 02 82 ba bf 8a 92 79 78 ab 52 b2 3f
       -0.1035462637581661 0.0715739411476283
0001b0 cc b1 5d 3f 4f 62 a7 3f 30 8a 75 18 84 2c 84 3f
       0.04567191742430374 0.009850532528337202
0001c0 dc 06 da 77 fe b6 a7 3f 89 01 0e 5b d1 3f b7 bf
       0.04631800854714438 -0.09081753228202251
0001d0 ca 7c 0a 4d b2 66 b4 3f ac d5 c8 6f ec 36 98 bf
       0.07969202404864287 -0.023647016833100373
0001e0 e6 b4 4e a6 f6 59 b1 3f 78 65 f9 83 35 ac b7 3f
       0.06777898369064736 0.09247145149256208
0001f0 e8 93 a3 8d d5 ed 8c bf 00 d2 bb 39 e1 6d a8 3f
       -0.01412550772188044 0.047713316247527615
000200 f0 fa 15 5d 3b 0e 98 3f 74 69 d3 22 e9 68 b7 bf
       0.023491790348539376 -0.09144456005325258
000210 7d af 0f 3f 03 91 b6 bf f0 23 15 48 f4 f3 9b 3f
       -0.08815021791059326 0.027297799014636526
000220 20 a7 30 fb 03 52 90 3f 30 69 7f 3a ec 8c ab bf
       0.015937864500450094 -0.053809530392486926
000230 8e 6d 4e fb 64 e7 b4 bf 64 95 4c b9 9c 2c b4 bf
       -0.0816557992497364 -0.07880572818665638
000240 d4 6d d3 5e 67 7b 9d bf 40 c3 da 11 af 77 5b 3f
       -0.02879106060286836 0.0016764840760680882
000250 34 6a 02 17 34 e5 ae 3f 90 8e 28 3c 4f 15 8c 3f
       0.06034243374707096 0.01371251966799683
000260 08 97 da 6e b3 64 9c bf 91 0c 34 96 7b df ba bf
       -0.027727893486960503 -0.10497257630417979
000270 04 74 fe 9f b2 ef bb 3f c0 8b 3d 16 f7 1a 7b 3f
       0.10912624746420369 0.006617512877570897
000280 14 b0 d5 ac c4 2b a0 3f 91 95 99 3d 44 b2 aa bf
       0.031583925340641056 -0.05214131595566152
000290 f6 87 fe 6b d8 1a ac bf dc 35 55 cc a1 60 98 bf
       -0.05489231413163502 -0.023806121918189635
0002a0 c0 91 24 c4 0f 68 91 bf 38 bd 9f a6 d8 51 8f bf
       -0.01699852595005935 -0.015292828164062841
0002b0 30 6b 77 29 3e ee 82 bf 80 94 98 24 65 f7 93 bf
       -0.009243474617439768 -0.01949842487205844
0002c0 20 1e 16 81 0b 6a 97 3f 4c 59 c4 2d 7c 35 ac 3f
       0.022865466836746617 0.05509555872611091
0002d0 00 10 36 9c a7 8f 3a 3f b1 38 d0 a9 d8 04 b4 bf
       0.0004052910046186131 -0.07819894929727657
0002e0 00 49 ab 29 a0 ba 86 bf 90 27 37 11 f5 7c a0 3f
       -0.01109814765132855 0.03220334849500184
0002f0 76 a7 f6 b9 09 64 b7 3f e0 3d 62 34 9e 47 67 bf
       0.09137020864605269 -0.0028417673048079933
000300 00 e4 a2 d0 da 5e b8 bf 64 38 cd 2d 0d 96 a9 3f
       -0.09519736856135808 0.0499729269418914
000310 50 40 ec 38 69 66 a5 bf 2f 1a 91 d2 f2 8e bb bf
       -0.04179695911273085 -0.10764997139731557
000320 e9 88 c9 e1 4a 96 ba bf 68 8f 96 78 9b a6 a5 3f
       -0.10385578167327804 0.042286737890463055
000330 c0 12 f1 4c 09 2e a5 3f 24 f6 28 b1 e7 66 b3 3f
       0.041366854326530866 0.0757889564055963
000340 4e c3 f2 b2 7a 1b a0 bf f4 e4 58 05 d0 d5 b7 3f
       -0.031459650367998124 0.09310627108142794
000350 20 95 d7 01 0c a0 99 3f 80 83 6f b8 e2 5e 46 bf
       0.025024592983659777 -0.0006826979669051075
000360 fa 4c 62 ca 8c 16 ba 3f 40 a2 de ee 67 df 93 bf
       0.10190658513083753 -0.0194069137138817
000370 ec f0 c6 0f ec 87 a6 3f 30 ce 13 5f b9 c6 b2 3f
       0.04400575344650001 0.07334478923058252
000380 b8 09 40 18 a0 38 82 3f 8e 1c e7 7d 0a e0 a3 bf
       0.008897066822105212 -0.03881867205523647
000390 eb 38 1b fd ea ea ac bf f8 5b 05 ad 3f de ae bf
       -0.05647978152920693 -0.06028937327453571
0003a0 77 8e 65 c7 2d af ae bf 74 e4 58 44 59 ac b5 bf
       -0.05993025836030779 -0.08466108244546594
0003b0 40 29 a0 3b c8 76 52 bf d0 8a b9 cd be 2f 8b bf
       -0.0011269526862656837 -0.013274660733434557
0003c0 40 df ac ad f6 1f 8c 3f f0 52 f2 86 90 51 74 bf
       0.013732840705059979 -0.0049605985251630486
0003d0 b6 91 2f 55 44 94 b2 3f ed 18 ec 30 96 e1 bb bf
       0.07257487373096336 -0.10891092962637901
0003e0 a8 9a 3a 72 3e cc ad 3f f0 3e 14 e6 f3 08 77 bf
       0.058198882526359796 -0.005623772363165122
0003f0 b9 d8 99 26 85 e6 b7 bf ac 64 90 85 1b c0 b6 bf
       -0.09336120788961723 -0.08886882792320944
000400 60 d4 a0 8e 7a 0b ba bf 40 e3 28 7d 44 3e a5 3f
       -0.10173765165457516 0.04149068858936866
000410 fe c2 89 a3 26 cc ba 3f 74 d8 e8 21 9c dc a8 bf
       0.1046775960219399 -0.048558119906758984
000420 e0 79 8d f1 d5 1a a3 bf d4 99 86 7e 1f d0 9d bf
       -0.03731411527290951 -0.029114238832016984
000430 b8 77 4b 87 f5 bc a3 bf 60 fc 1b 51 c1 11 83 3f
       -0.038551018491247147 0.009311208999404907
000440 fe b2 e7 13 94 e4 b2 3f 28 53 7b 73 61 73 90 bf
       0.07380033002818817 -0.016065142320104503
000450 68 47 60 7e 30 aa 95 3f 3c 47 68 c0 33 7d b2 bf
       0.021157033646950124 -0.07222293326802015
000460 6a 8f 16 06 56 fc ae bf b0 ce 39 32 9b 0d 79 bf
       -0.06051892113035147 -0.006116491541991273
000470 70 c0 60 f3 db d7 87 3f a8 09 bd 1b d3 ba 89 bf
       0.01164218746643561 -0.012563370975503599
000480 c8 94 64 f2 a5 ea a0 3f 80 8f 1c 93 44 4f 69 bf
       0.033040223921753376 -0.0030895556782457034
000490 00 d0 54 74 3d 9b 7a bf d0 83 c1 cc 85 1c a9 3f
       -0.006495704704594374 0.0490457355924786
0004a0 a0 83 b4 f1 94 a8 b4 3f c0 91 fe c3 07 8f 7e 3f
       0.08069735432628855 0.007460623106372244
0004b0 9d 57 36 1f 4c 53 bb bf f0 f3 43 40 7d 9d a6 3f
       -0.10673976671236436 0.0441702977131867
0004c0 9c b8 e2 f1 77 a2 97 bf c4 cf 18 14 42 80 b0 bf
       -0.023080705774810015 -0.06445706358573405
0004d0 30 1b 9f 7e ab 4d 85 3f 86 87 6f cd ed 88 b1 3f
       0.010402049829179555 0.0684956194450291
0004e0 d6 89 24 a3 68 2a b7 bf aa 9c da 86 88 f2 b7 bf
       -0.09049085600830806 -0.09354451458294713
0004f0 4a 64 08 68 ca c6 bb bf 7e c9 25 92 03 e0 b7 3f
       -0.10850205459463882 0.09326193159157545
000500 08 b7 87 bc 51 c5 ae 3f c0 16 83 da f4 3a b4 3f
       0.06009917665856618 0.07902460417525514
000510 b6 b9 d3 5f ff 2e b0 bf c0 ef 86 e1 49 f2 6a 3f
       -0.06321712579276703 0.00328936033130664
000520 f8 93 b6 70 22 c1 83 3f 7a 1d d6 ad 13 47 bb 3f
       0.009645718636258835 0.10655329698612617
000530 4c 1f 4b 26 13 0b a2 3f e0 e2 6a 17 7d 80 a3 3f
       0.03524074404191299 0.038089665516457094
000540 7a 1d f5 60 61 72 b3 3f 20 f5 ee 17 09 62 aa 3f
       0.07596405617834093 0.05152920167118169
000550 ee 6d d5 3b ff b0 b3 bf 16 8f 20 0e 6f 48 a6 bf
       -0.07691950999053862 -0.04352137610865563
000560 a6 31 e2 02 7a d0 b9 3f 30 56 21 c4 e1 80 9e 3f
       0.10083735056304607 0.029788520427550036
000570 d8 64 de 8c 35 c3 8d bf f0 b6 4d 30 5b 1b b0 bf
       -0.0145324882139896 -0.06291742257391397
000580 4e a5 be e2 08 fd ba bf 1a dd 8d 7f 02 03 ba 3f
       -0.10542350326308744 0.10160842527499306
000590 0b 04 32 72 b0 9e b4 bf 62 88 ec 24 ce 3d a8 bf
       -0.08054640567753794 -0.04734653664333234
0005a0 a4 41 45 de 1a 10 a0 3f b8 25 6b 2f b3 31 af 3f
       0.031372871048577694 0.06092605546798374
0005b0 f0 d9 82 3b 30 80 8c bf 60 f2 0e e6 70 4e 80 bf
       -0.013916374984870722 -0.007962114353966487
0005c0 d1 a9 44 5c 70 c6 b5 bf 7c 0c 3c 75 08 c4 b7 3f
       -0.08505918743745801 0.09283497678920755
0005d0 cc 19 bd 18 64 28 a0 3f 48 7a c7 30 61 58 8e bf
       0.03155815889344957 -0.014817008305667248
0005e0 1f c0 f6 81 5a 9f b1 bf 80 6d a4 13 bf 7e 80 bf
       -0.06883779213853856 -0.008054249560294435
0005f0 68 6f 6a c0 70 94 a5 bf e2 61 d4 aa 26 cc a6 bf
       -0.04214813565087533 -0.044526298859810756
000600 a9 df da 44 01 d5 b6 bf 1c f1 6e 4a dd 8c b0 bf
       -0.08918769770650549 -0.064649420425614
000610 77 d8 c0 b5 bc dd b6 bf 96 58 55 23 d9 a9 a3 bf
       -0.0893209403737688 -0.03840521389308653
000620 b8 84 61 35 f1 1d b4 3f 00 71 8e 17 db 3f 9e 3f
       0.07858188203091998 0.029540465653199455
000630 00 de 6e 05 9c 40 a1 3f 67 a0 79 e3 c8 47 b4 bf
       0.03369605604478565 -0.07922034791556741
000640 d8 85 66 1c 16 02 84 3f a4 c9 37 e4 46 f2 b7 bf
       0.009769604436601506 -0.09354060241438461
000650 5e d0 77 2e 29 67 ae bf 92 bc 05 5f cd 4d b5 3f
       -0.05938080494152652 0.08321841783412001
000660 6c ad fa 8c 68 63 a7 bf 84 27 d0 cd 8f a0 a3 bf
       -0.04568030091226202 -0.03833436381690006
000670 8c a2 65 b8 a0 7d a5 3f 20 55 b7 1f b1 36 68 3f
       0.04197408915462572 0.0029557666254996923
000680 0c ec b9 5e 2f 2a 9e bf 34 b1 e4 c7 10 c4 a5 3f
       -0.02945779815352627 0.04251148643592942
000690 e8 43 fb be 09 7a b5 3f f8 40 13 4e 60 eb b0 3f
       0.0838934031737747 0.06609155565388736
0006a0 dc 6f 08 4f 7e 30 b7 3f e4 a4 e7 02 f5 5d 99 bf
       0.09058370046153591 -0.02477248029928071
0006b0 54 80 ea 6b 09 f3 b8 3f 7d fa 33 a4 09 37 bc bf
       0.09745844731014702 -0.11021480807174018
0006c0 28 7c 38 99 4e 54 b1 bf 60 de c3 3d 7a bc 96 3f
       -0.06769267311800375 0.02220335962280584
0006d0 6c 6a 0a 29 5b d3 90 bf f1 39 23 2e 53 cf b3 bf
       -0.01643125951759787 -0.07738227726370163
0006e0 30 66 a8 bd 94 0c 84 3f c1 ed e6 74 3b fa af bf
       0.00978962138929082 -0.06245599557902493
0006f0 48 d3 fc bc 9c c9 a1 3f 58 e4 6d ef 5f ab ba bf
       0.03474130446412588 -0.10417747111741116
000700 88 4c d3 f2 f8 db a0 3f 9c 5a e3 f5 e4 b4 96 bf
       0.03292825664689142 -0.022174432285135923
000710 e8 e6 93 47 81 45 93 3f 11 b2 6e 26 57 d3 b7 bf
       0.018819828027495072 -0.09306854904452445
000720 9c 7f ee 92 6d 34 b7 bf 31 8f a9 b5 97 d6 aa bf
       -0.09064373814771759 -0.052418461728647954
000730 92 79 58 1a fa 09 b5 3f 48 cd 3e f0 05 0f a6 3f
       0.08218348639682052 0.043083367897816915
000740 68 8c 6a 7a 41 d9 9c 3f 60 26 e9 7d 70 9e 87 bf
       0.028172515007679172 -0.011532667963496113
000750 68 d0 9e d9 4b 92 a5 3f 42 87 7f 63 cd 0b b2 bf
       0.0421317771100867 -0.07049258879808654
000760 e3 e6 ee fc 82 b5 bb bf 58 cb 3e 8b a7 58 98 bf
       -0.10823839831473551 -0.023775689958437013
000770 23 a1 8d d8 2a 93 bb bf fb de ea d7 c4 15 bc bf
       -0.10771434580749832 -0.10970716735289081
000780 66 41 8f ff e9 d3 a4 bf 12 0a 33 bf 2f f7 b7 3f
       -0.04067927593826219 0.09361551683381489
000790 08 66 e9 61 a1 1f a2 bf 1c 21 52 0d 27 e5 a4 bf
       -0.03539757080279676 -0.04081079518897665
0007a0 b7 bc a1 19 d3 f7 b0 bf 1c 37 cd 5b da 0a a0 bf
       -0.0662815034463503 -0.031332801538708405
0007b0 d8 c8 21 e9 56 ba b3 3f 3c 1f 9c 4c af ff b1 3f
       0.07706206504534252 0.07030768986089425
0007c0 a0 35 30 82 aa 18 70 bf 90 fd 79 60 68 69 b9 3f
       -0.0039297733774338595 0.09926464419731063
0007d0 6a 50 7e a3 69 72 b2 3f 78 41 84 1c 1d 84 b5 3f
       0.07205829850710335 0.0840471453304924
0007e0 56 ed 92 ba 2b 73 b1 3f dc 86 15 f9 db 5b b4 bf
       0.06816361718204197 -0.07952666121630209
0007f0 6b bb b9 44 8d 6e a9 bf 28 c0 7d 5f f8 99 97 3f
       -0.04967156852659723 0.023048287227936864

fc2.bias f8 [3]
000000 7b 14 ae 47 e1 7a 84 3f 7b 14 ae 47 e1 7a 84 3f
       0.01 0.01
000010 7b 14 ae 47 e1 7a 84 3f
       0.01
